Lab3/cifar100_LNN.onnx (onnx, 124206 bytes, 4 tensors)

seq.0.weight f4 [10, 3072]
0	0x3a0ec035	0.0005445511
1	0x3c38bcd2	0.011275487
2	0x3ceae725	0.028674671
3	0xbc4b4baf	-0.012408181
4	0x3ca15896	0.019695561
5	0x3d470cb6	0.048596106
6	0x3983e9d9	0.00025160497
7	0x3c83db7b	0.016095867
8	0x3d4cdf01	0.05001736
9	0xbc850606	-0.016238224
10	0x3c7ea327	0.015541828
11	0x3d04ff16	0.03246983
12	0xbc5c5924	-0.013448987
13	0xbc3e4e0a	-0.011615286
14	0x3c80acd2	0.015707407
15	0xbd0c943f	-0.034321066
16	0xbc559bea	-0.013037661
17	0x3cec5333	0.028848266
18	0xbcbd40cd	-0.023102188
19	0xbcb6a738	-0.022296533
20	0x3c7b119c	0.015324023
21	0xbc5e0afb	-0.013552423
22	0xbc88ad9e	-0.01668435
23	0x3b2213cb	0.0024731036
24	0xbc29b4a9	-0.010358014
25	0x3949ed4f	0.00019257258
26	0x3cf5e7da	0.030017782
27	0xbcfa8db7	-0.030585153
28	0xbc3ff492	-0.011716025
29	0x3cabe19f	0.020981608
30	0xbc98b815	-0.018642465
31	0xbbadd010	-0.005304344
32	0x3be5db86	0.0070146946
33	0xbcd43e34	-0.025908567
34	0x3c3b3a6a	0.011427501
35	0x3d012c70	0.03153652
36	0xbb756719	-0.0037445484
37	0x3b1907e9	0.0023350662
38	0x3d158a61	0.03650892
39	0x3bdcf71c	0.006743325
40	0xbccedad9	-0.02525084
41	0xbbd7976c	-0.00657933
42	0xba583776	-0.00082480104
43	0xbc37cfd8	-0.011218987
44	0xbbe3be42	-0.0069501707
45	0xbc958615	-0.018252412
46	0xbc603a58	-0.013685785
47	0xbc917783	-0.017757183
48	0xbc91bf26	-0.017791342
49	0xbaa9ae7e	-0.001294568
50	0x3cdae9b3	0.026722765
51	0xbbd990e5	-0.006639587
52	0xbc877dcd	-0.016539479
53	0x3cb79d5a	0.022413898
54	0xbcfa5ee8	-0.030562833
55	0xbca36c15	-0.019948998
56	0xbc856db4	-0.016287662
57	0xbd04a827	-0.032386925
58	0xbc8c20fb	-0.01710557
59	0xbc74308c	-0.014904153
60	0xbce0ed4b	-0.0274569
61	0xbd53bba5	-0.051692624
62	0xbcd97c24	-0.026548453
63	0xbd0cdfa6	-0.034392975
64	0xbca98df3	-0.02069757
65	0xbc6355d7	-0.013875446
66	0xbcfc17a5	-0.030772993
67	0xbca46731	-0.020068737
68	0x3c86b38a	0.016443033
69	0x3a923f91	0.001115786
70	0x3c33e316	0.0109794345
71	0x3cfa46b3	0.03055129
72	0xbce2ab68	-0.027669623
73	0xbbe8beda	-0.0071028294
74	0x3cc1d2d3	0.0236601
75	0xbd114b1b	-0.035472017
76	0xbcdb534e	-0.026773121
77	0xbbbb3bee	-0.0057139313
78	0xbcead463	-0.028665727
79	0xbd0445ea	-0.032293238
80	0x3cbd3e37	0.023100955
81	0xbc6be8f1	-0.014398799
82	0xbcc6f65f	-0.0242874
83	0x3ca6b7d2	0.020351324
84	0xbcef4448	-0.029207364
85	0xbcd5eaad	-0.026112879
86	0x3b49ec9b	0.0030811194
87	0xbcf4e318	-0.029893443
88	0xbd015ecc	-0.031584546
89	0x3cc3f856	0.023922127
90	0xbcce1351	-0.025155695
91	0xbc2570c1	-0.010097683
92	0x3cc2df5a	0.023788143
93	0xbcf58fa6	-0.029975723
94	0xbc9bc55f	-0.019015012
95	0x3d03f0e5	0.032212157
96	0x3c8db9eb	0.017300567
97	0x3c97d0a1	0.0185321
98	0x3cf00b13	0.029302156
99	0xb9e0f87f	-0.00042909753
100	0x3cd3bede	0.025847849
101	0x3d037ad9	0.03209958
102	0xbc350725	-0.011049067
103	0x3cf099e6	0.02937026
104	0x3d206ede	0.03916823
105	0x3bb872b6	0.005628909
106	0x3ca7fef0	0.020507306
107	0x3d29b88a	0.041435756
108	0x3c137fc3	0.009002629
109	0x3c12a7e4	0.008951161
110	0x3c651272	0.0139814485
111	0xbbce708f	-0.006300039
112	0xb9c3e508	-0.0003736394
113	0x3d20235f	0.039096233
114	0x3a70d565	0.00091870717
115	0x3a46c767	0.0007582814
116	0x3c00b9ab	0.007856767
117	0x3a14b486	0.0005672652
118	0xbb9bfc19	-0.004760277
119	0x3d0347cd	0.032050896
120	0xbd0d0e11	-0.034437243
121	0xbce09631	-0.027415367
122	0x3c9a272f	0.018817512
123	0xbd20f958	-0.039300293
124	0xbcc9d7d0	-0.02463904
125	0x3c56c85d	0.013109294
126	0xbd10941e	-0.035297506
127	0xbc3c492e	-0.011492057
128	0x3cff0513	0.03113035
129	0x3b9c1196	0.0047628386
130	0x3b972907	0.004613045
131	0x3d10a2e1	0.035311583
132	0xbae086fd	-0.0017130073
133	0x3cbde6d2	0.023181353
134	0x3ce27f17	0.027648492
135	0xbca8e62d	-0.020617569
136	0xbc17c5c2	-0.009263458
137	0x3ccc1021	0.024910035
138	0xbba7bd4f	-0.005119003
139	0xbca1c09e	-0.019745167
140	0xbc7b0c5e	-0.015322773
141	0xbcac3247	-0.021020068
142	0xbb4f3a1a	-0.0031620325
143	0x3b4f8568	0.003166521
144	0xbc8f1aae	-0.017468777
145	0xbc4a00f5	-0.01232933
146	0x3cf8deb2	0.030379627
147	0x3bcf10ec	0.006319156
148	0xbce5e4e3	-0.028063243
149	0x3c83cc8e	0.01608875
150	0xbd13de60	-0.036100745
151	0xbc890582	-0.01672626
152	0x3b818b2e	0.003953359
153	0xbbc30636	-0.005951668
154	0xbd02c860	-0.031929374
155	0xbaad6d8f	-0.0013231504
156	0xbceb4a6f	-0.028722016
157	0xbcae2bac	-0.021261059
158	0xba168c51	-0.00057429547
159	0xbc28c4af	-0.010300799
160	0xbc789ab6	-0.015173605
161	0x3c181b5c	0.009283867
162	0xbc7ef140	-0.015560448
163	0xbcf2c3f9	-0.029634463
164	0xbaeaad2b	-0.0017904391
165	0xbcca73d9	-0.024713444
166	0xbc417615	-0.011807938
167	0x3b3b0510	0.0028536953
168	0xbccbd9b0	-0.024884075
169	0xbcef1215	-0.029183427
170	0x3c91eb4c	0.017812394
171	0xbcf15f4b	-0.029464385
172	0xbc999765	-0.018748948
173	0x3c4b2bb4	0.012400556
174	0xbc4f5acc	-0.012655925
175	0xbc1ea6d8	-0.009683333
176	0x3c6fa34e	0.014626337
177	0xbd1cbb25	-0.038264412
178	0xbc6f2ffc	-0.014598843
179	0xbb910312	-0.004425415
180	0xbcb6fa7c	-0.022336237
181	0x3c0dfb42	0.008665862
182	0x3c4d7c84	0.012541894
183	0x3b7f8331	0.0038988108
184	0x3c9c3b49	0.019071238
185	0x3d112ff6	0.03544613
186	0xbc8da723	-0.017291611
187	0xbb52edcd	-0.0032185197
188	0x3d27724c	0.040880486
189	0xbc2f8f21	-0.010715277
190	0x3b5d12b1	0.0033733065
191	0x3c81e085	0.01585413
192	0x3c046042	0.00807959
193	0x3b89f5cf	0.004210211
194	0x3c8e9364	0.017404266
195	0xbcda61af	-0.026657907
196	0x3c67d6a7	0.014150298
197	0x3d1525f8	0.036413163
198	0xbc957494	-0.018244065
199	0xbc56110d	-0.013065589
200	0x3cea918b	0.028633853
201	0xbcbb9706	-0.022899162
202	0xbc4267a2	-0.011865528
203	0x3d006d23	0.03135408
204	0xba804632	-0.0009786545
205	0xbb3358d8	-0.0027366187
206	0x3cd072ed	0.025445426
207	0xbcc0b144	-0.023522027
208	0xbcbf7060	-0.023369014
209	0x3c3df199	0.011593246
210	0x3b65e608	0.0035079736
211	0x391dbf4e	0.00015043953
212	0xbc14be8a	-0.009078631
213	0xba3d78a3	-0.0007227754
214	0x3acc8897	0.0015604672
215	0x3d193bbd	0.037410486
216	0x3a37527b	0.00069931865
217	0xbaaf7cde	-0.0013388654
218	0x3cf5a31f	0.029985009
219	0x3c203d9e	0.009780316
220	0xbba3c66c	-0.004998019
221	0x3d05fa12	0.03270919
222	0xbcf13a4b	-0.029446742
223	0xbc154cf3	-0.009112584
224	0x3cca24e1	0.024675788
225	0xbbb46214	-0.005504856
226	0x3c0e87f0	0.008699402
227	0x3c67d677	0.0141502535
228	0xbaeb39af	-0.0017946268
229	0x3cb29608	0.021800056
230	0x3cc5410c	0.024078868
231	0x3c87b794	0.016567029
232	0x3aa06ffe	0.0012240408
233	0x3a838c43	0.0010036308
234	0x3bdd944c	0.006762063
235	0xbc3a7a56	-0.011381706
236	0x3c5ce3db	0.013482059
237	0x3c1aec8c	0.009455811
238	0x3c21c65c	0.009873953
239	0x3b0d0aaf	0.002152126
240	0x3b952ce1	0.004552469
241	0xbc7cc080	-0.015426755
242	0x3ce219b6	0.02760015
243	0x3bdedd76	0.0068013025
244	0xbae38607	-0.0017358669
245	0x3b22f7ef	0.0024867018
246	0xbc3fce17	-0.0117068505
247	0x3bca7676	0.0061786724
248	0xbb48c754	-0.0030636387
249	0xbc095c60	-0.00838384
250	0xbc70954f	-0.014684035
251	0xbc85f607	-0.016352667
252	0xbc18548f	-0.009297504
253	0x3b9ee49a	0.004849029
254	0xbb0eddee	-0.002179976
255	0xba1e9135	-0.0006048859

seq.0.bias f4 [10]
0	0xbc3c661d	-0.011498955
1	0xbd9af0ca	-0.07565458
2	0x3d11304f	0.03544646
3	0x3da91e5e	0.08257745
4	0xbcc80dd6	-0.02442066
5	0xbd4077f0	-0.04698938
6	0x3e175047	0.14776717
7	0x3db40835	0.08790628
8	0xbcef8422	-0.02923781
9	0xbcfed831	-0.031108947

seq.2.weight f4 [3, 10]
0	0x3f2b9858	0.67029333
1	0xbecabc1f	-0.3959665
2	0xbf422dc8	-0.75851107
3	0xbe7e50ed	-0.24835558
4	0xbdf6d991	-0.12053216
5	0x3f1fadce	0.6237458
6	0x3d09d303	0.033648502
7	0xbe9ec175	-0.3100697
8	0xbe115de5	-0.14195974
9	0x3edca8fe	0.4309768
10	0xbe5aa71e	-0.21352813
11	0xbe8f40ee	-0.27979225
12	0x3ed3c96b	0.41364607
13	0x3f20b115	0.62770206
14	0xbf00f2b4	-0.50370336
15	0xbecb66e0	-0.39726925
16	0x3ef81111	0.4845052
17	0x3f130dbe	0.57442844
18	0xbebf2f3c	-0.37340724
19	0xbeb0ccb0	-0.34531164
20	0xbf0364dd	-0.5132578
21	0x3ef80ad1	0.48445752
22	0x3ea185d2	0.3154741
23	0xbeb27553	-0.34855136
24	0x3e87fd1b	0.26560292
25	0x3ea04970	0.31306028
26	0xbf2607f6	-0.648559
27	0xbe8cafcd	-0.27477875
28	0x3d93f02e	0.07223545
29	0x3e176ca3	0.14787535

seq.2.bias f4 [3]
0	0xbcae4043	-0.021270877
1	0x3ea5ca71	0.32381013
2	0xbee12dcf	-0.43980262
