Lab3/cifar_lnn.pt (torch, 126183 bytes, 6 tensors)

mean f4 [3]
000000 f7 e4 01 3f be 30 f9 3e dc d7 e1 3e
       0.5074 0.4867 0.4411

std f4 [3]
000000 29 ed 4d 3e 03 78 4b 3e 29 5c 4f 3e
       0.2011 0.1987 0.2025

weight f4 [10, 3072]
000000 bd 0a 3f bd 92 3f 84 bc e5 74 b8 3c 5b 73 dc bc
       -0.0466411 -0.016143594 0.022516677 -0.026910475
000010 62 53 45 bc d3 64 89 3c 9e a1 19 bc 96 36 64 3c
       -0.012043806 0.01677171 -0.009376911 0.01392903
000020 8b 30 93 bc a0 fa d0 bb 39 81 e0 ba 0c de 86 3b
       -0.017967483 -0.006377533 -0.0017128355 0.0041158255
000030 64 9a 4a bb 12 fd 1a 3c dc 3f 73 bc 29 87 ef 3b
       -0.0030914778 0.009459751 -0.014846768 0.0073098135
000040 5b de 7b 3b 54 7b 60 bc da 52 03 bd 20 d4 a0 bc
       0.0038432095 -0.013701279 -0.032061435 -0.0196324
000050 55 ec da bb 3f 96 2e 3c d4 d1 9f 3b f7 b2 7f bc
       -0.006681005 0.010655939 0.0048773084 -0.015606633
000060 8b 1b c6 3c 76 ff 2e 3d ad 66 65 3c 52 96 58 3c
       0.024183055 0.042724095 0.014001531 0.013219433
000070 b5 7b 00 3d dd ee 06 3c 9b f1 48 3c 6e 24 0e 3c
       0.031367976 0.00823566 0.0122646345 0.008675678
000080 96 18 02 3c 4b b0 80 bc b2 90 04 3d 41 eb 09 3c
       0.007940432 -0.015709063 0.032364555 0.008417905
000090 2b 39 83 bb a1 8e 62 3b ab ab 11 3d 76 d8 25 3d
       -0.0040046177 0.0034569877 0.035564106 0.040489636
0000a0 4c 41 0d 3d 86 74 0a 3d b7 ba 32 bb b5 a9 18 ba
       0.0344861 0.03380253 -0.0027271935 -0.0005823628
0000b0 58 9b f0 3b 7f f2 fd bb ad e9 58 bc f2 e0 83 3c
       0.007342737 -0.007749855 -0.013239306 0.016098473
0000c0 8a 72 4b 3c 6d 7f 0f 3b 4f e6 84 3c a0 0d 5c bc
       0.012417445 0.002189602 0.016223101 -0.013430983
0000d0 eb 10 0d 3c 71 2d 9f 3c a3 62 80 3c 9a 53 a5 3c
       0.008609991 0.019430848 0.015672034 0.020181466
0000e0 2e 70 46 3d af 3b 80 bb 75 76 45 3c 85 72 ce 3c
       0.048446827 -0.003913365 0.012052168 0.025201092
0000f0 29 6a 9c bc 36 60 5c bc c0 b0 88 3c 74 c1 b7 3c
       -0.01909359 -0.013450673 0.016685843 0.022431113
000100 07 b1 90 3c f6 f9 a7 3b 4f d5 03 3d 79 d3 c8 3c
       0.017662538 0.005126233 0.03218585 0.0245149
000110 b3 4f 7c 3c 0c 0a 51 3d f3 c1 c2 3c 25 5d 1d 3d
       0.015399861 0.051034972 0.023774123 0.038418908
000120 62 31 dd 3b a9 ae 0b bc 09 cd 75 bc a2 7a 07 3c
       0.0067502717 -0.008525529 -0.0150024975 0.008268984
000130 36 a3 82 bc bd 2c 76 bc db 77 a7 3c b0 92 c8 bb
       -0.015946966 -0.015025315 0.020442894 -0.006121002
000140 99 cf 9c bc 26 66 25 bb 87 e0 c2 bb 51 16 9c bc
       -0.019141959 -0.0025237887 -0.005947176 -0.01905361
000150 3a 9a 90 3c dd 65 43 3c a1 1a 91 3b fd a5 5e 3c
       0.017651666 0.011926142 0.0044282232 0.013589379
000160 c7 75 9e 3a 84 b5 83 bc 62 46 af bc a0 c0 78 bc
       0.0012089544 -0.016077764 -0.021395866 -0.015182644
000170 84 c7 a2 3a b8 2d 4c bd f4 c2 5f bc 47 4a a6 3c
       0.001241908 -0.04984829 -0.01365732 0.02029909
000180 2e f3 97 bb 0d cf a3 bc e9 f3 14 3d 3c da 2a bd
       -0.0046371436 -0.01999619 0.036365423 -0.04171203
000190 e4 ef 15 bd 1e 1c 85 bc 09 7f ba bc f5 c3 80 bc
       -0.03660573 -0.016248759 -0.022765653 -0.01571844
0001a0 21 fe 54 bc 47 ab d5 bb 34 53 ea bc 7c 86 71 bc
       -0.013000042 -0.006520662 -0.028604127 -0.014741536
0001b0 6e 4b 4b bc 24 3d cb 3b ef 12 31 bc 79 e7 9e 3c
       -0.012408121 0.006202357 -0.010807737 0.019397484
0001c0 ae 74 d8 3c 1f b8 cd 3c 0a 20 5e bc c0 93 ba bc
       0.026422825 0.02511221 -0.013557443 -0.02277553
0001d0 44 db 59 bc d5 dd 19 3b e2 57 65 bc 71 6f 21 bc
       -0.013296906 0.002347817 -0.013998004 -0.00985323
0001e0 17 f2 48 3c 28 9c 4b 3c a2 27 3d 3b 44 aa 91 bc
       0.01226475 0.012427367 0.0028862734 -0.017781384
0001f0 6b 02 0a bb 48 06 d7 bc ee af c3 bb 9f a0 8c 3c
       -0.002105857 -0.026248112 -0.0059719 0.017166434
000200 c2 e9 ec 3b b8 be fa bc 03 6e ab bc 74 4c 0c 3c
       0.0072300145 -0.03060852 -0.020926481 0.00856315
000210 8b b4 2f 3c b7 19 26 bc bb af 1d 3c 41 c5 9a 3c
       0.010724197 -0.010137967 0.009624417 0.018892886
000220 1b a8 bc 3c 5d db e7 3c f8 8d 26 bc ab cc 3a bd
       0.023029378 0.028302843 -0.010165684 -0.045605343
000230 12 31 ce bc fd 59 ee bc 64 39 c4 3a 73 fb 9a bc
       -0.025169883 -0.029095644 0.0014970717 -0.018918728
000240 f7 52 d6 3b 11 c7 75 bc a7 e2 22 bc f1 91 7b bc
       0.006540652 -0.015001074 -0.009941733 -0.015354619
000250 db 7b bb bc 70 5b e0 bc b2 ec 6b 3b 21 f3 06 3a
       -0.022886207 -0.02738735 0.0035999236 0.00051479234
000260 95 72 6f 3c 95 29 e2 3c 74 3e 9a 3a 3e ca 44 3c
       0.014614721 0.027607718 0.001176788 0.012011109
000270 97 6d 97 3b 77 f1 bc bc 01 04 9d bc 25 d8 98 3b
       0.0046212184 -0.023064358 -0.019166948 0.0046644383
000280 68 38 97 bc f2 d2 54 bc 72 6a 0e bc 14 e0 22 3b
       -0.018459514 -0.012989746 -0.008692371 0.00248528
000290 b5 a1 86 3c 7b 0b 1b 3a b1 72 3c bc 91 14 c3 3b
       0.01643453 0.00059144915 -0.011501954 0.0059533794
0002a0 98 ae 56 ba bc 95 d9 bc 42 ff db bc 3f 24 17 bc
       -0.00081894686 -0.026560657 -0.026855115 -0.00922495
0002b0 94 11 aa bb 4e 7e 1b 3a 8e 96 08 3d 91 f2 da 3c
       -0.0051900838 0.00059316016 0.033346705 0.026726993
0002c0 5a 90 0c 3d 14 6a a8 bc 92 7b 58 bb 36 eb a7 bc
       0.034317352 -0.020558394 -0.0033032638 -0.0204979
0002d0 6d 4a 81 3b 6f 87 77 3a 2c fe 9e bc 5e d7 a9 bc
       0.00394564 0.00094424834 -0.019408308 -0.020732578
0002e0 47 2d ba bc 82 1f 66 bb e0 5f 3a bd 0e 88 1f bd
       -0.022726668 -0.0035113995 -0.04550159 -0.03894811
0002f0 48 2d 38 bc dc 29 ad bc 6f c7 e8 bc bf ba 29 bc
       -0.011241265 -0.021138124 -0.02841541 -0.010359465
000300 da 4f 4b bb 79 7e 20 3c a2 74 e1 3c a0 2d cd 3c
       -0.0031022937 0.009795778 0.027521435 0.02504617
000310 56 98 a3 3c e3 25 d6 3c 8b 0a de 3c fc 7e a3 3c
       0.0199701 0.026141113 0.027104637 0.019958012
000320 98 27 9a 3c db 32 91 ba 48 c8 b0 3c df 8e 5e 3c
       0.018817708 -0.0011077778 0.021579877 0.013583868
000330 ea 24 dc 3b d9 8b 79 3c ac 68 b5 bb 83 0c 7d ba
       0.0067182677 0.015231096 -0.0055361595 -0.00096530485
000340 a6 e4 d1 3c b3 17 e3 3c 57 45 e9 bc 7b 78 ca bc
       0.025621723 0.027721262 -0.028475447 -0.024715653
000350 6a 38 c2 bc d2 47 d2 3b 65 33 6d b9 32 b7 27 3c
       -0.023708541 0.006417253 -0.00022621227 0.010236548
000360 5d 0a 63 3c 87 d4 cb 3b 86 d1 83 bc cc 02 fa bc
       0.013857451 0.0062204036 -0.01609112 -0.030518912
000370 02 7b 07 bd 77 bb b6 bc 67 1b 4f bc 39 c4 39 3c
       -0.033076294 -0.022306187 -0.012640811 0.011338287
000380 e6 58 ba bb 0b 06 38 3c 7d dd 93 3c c9 25 6e 3c
       -0.005686867 0.0112319095 0.01804995 0.014535376
000390 80 53 0b 3d 14 a8 b8 3b 49 34 e7 b9 67 76 04 bd
       0.03401518 0.005635271 -0.0004409871 -0.03233948
0003a0 d4 5a ac bc f7 e5 27 bc 8f 0e 4a bc c7 8d 51 bb
       -0.021039404 -0.010247699 -0.012332573 -0.0031975375
0003b0 f3 42 7e bb 04 50 27 3d 3f f5 e5 3c 3a 08 26 3d
       -0.003879723 0.040847793 0.028071044 0.04053519
0003c0 ea d2 11 3d e2 40 4b 3d 83 33 19 3d 38 c2 8b bb
       0.035601534 0.049622424 0.03740264 -0.004265096
0003d0 a5 e6 1f bc 1b 96 c0 bc 1a de e4 bc db c3 f9 bb
       -0.00975958 -0.023509076 -0.027937938 -0.0076222247
0003e0 4b c5 46 bb a2 0e 98 3c fb 8a 56 3c d1 1d aa 3c
       -0.0030329998 0.018561665 0.013094659 0.02076617
0003f0 0f b8 dd 3c 2d 0a 97 3b 40 8f b2 3c b5 da bd bb
       0.027065305 0.0046093673 0.021796823 -0.005793894

bias f4 [10]
000000 87 82 dc bd 12 d7 01 3d 3f af 96 bd c3 b7 85 3e
       -0.107670836 0.031699248 -0.07357644 0.26116762
000010 96 97 c9 bd 92 a6 84 bd 19 87 eb 3d ac 0c d9 3e
       -0.09843366 -0.06477083 0.11500377 0.4239248
000020 4c ae 73 3e 1f 09 ff bc
       0.23796958 -0.031132279

weight f4 [3, 10]
000000 c5 4b 25 3f a2 a4 e9 be 97 b8 43 3f 90 00 33 bf
       0.6456874 -0.45633417 0.76453537 -0.69922733
000010 a4 77 5f 3f d0 59 74 3f 00 a1 6d bd 01 e9 88 3e
       0.8729193 0.95449543 -0.05801487 0.26740268
000020 af f1 7a bf d4 13 7a bf a4 a2 2b bf 55 0d 24 be
       -0.9802503 -0.97686505 -0.67045045 -0.16020711
000030 2b 61 91 bf 96 b1 77 3f ef af f8 be 0e c3 f4 be
       -1.1357778 0.9675535 -0.48571727 -0.47805065
000040 0a f5 48 3f 21 cb 3c 3f 48 46 37 3f 9a ed 06 3f
       0.784989 0.7374745 0.71591616 0.527063
000050 27 ba 32 3d 40 a1 e7 3e e2 4e 87 3e 78 04 07 bf
       0.04363456 0.4524021 0.2642737 -0.52741194
000060 86 aa 29 bf fc 64 0e bf 6c a6 fb bd 1b 73 89 bf
       -0.66275823 -0.5562284 -0.12287602 -1.0738252
000070 cd 6b 9a 3e 1f fa 44 3f
       0.3016037 0.76944155

bias f4 [3]
000000 e6 fc 82 be 1f c3 16 3f 98 de 05 bf
       -0.2558357 0.5889148 -0.52292776
